multi_layer_gen/checkpoints/transparent_decoder_ckpt.pt (torch, 11157 bytes, 10 tensors)

dec1.0.weight f4 [8, 16, 3, 3]
0	0xbd63fa26	-0.055658482
1	0xbcd11326	-0.025521826
2	0xbda2ff6e	-0.079588756
3	0x3cdbfca0	0.02685386
4	0xbc08b9f8	-0.00834512
5	0x3d8f6a13	0.07002654
6	0xbb1a5ee0	-0.0023555085
7	0xbc83c4ec	-0.01608511
8	0x3cb8fbd4	0.022581019
9	0x39396800	0.00017681718
10	0x3da44a13	0.08021941
11	0xbd8bdc93	-0.068291806
12	0x3d2b0366	0.041751288
13	0xbbb37d30	-0.00547757
14	0x3d185128	0.03718677
15	0xbd8ca194	-0.06866756
16	0x3d387e1a	0.045042135
17	0x3d3cba86	0.04607632
18	0xbd71a94e	-0.058999352
19	0x3d8a5dc1	0.067561634
20	0xbd88dd76	-0.06682865
21	0xbd0ec286	-0.03485348
22	0xbcc72aac	-0.02431234
23	0xbb8adc40	-0.0042376816
24	0x3ba7b200	0.005117655
25	0xbd0f70a3	-0.035019528
26	0xbd226988	-0.039651424
27	0x3cc56f10	0.02410081
28	0x3d7ca842	0.0616839
29	0x3d326902	0.043557175
30	0x3d214e62	0.039381392
31	0x3d26c1d2	0.040712185
32	0x3cd2f9c4	0.025753863
33	0xbccbf950	-0.024899155
34	0xbd844546	-0.06458525
35	0xbd8dc48f	-0.06922256
36	0x3d7b6b1a	0.061381437
37	0xbd57266b	-0.052526873
38	0xbd841d6c	-0.06450924
39	0x39710600	0.00022985786
40	0xbca3fd30	-0.02001819
41	0xbb9d4e10	-0.0048005655
42	0xbda494a0	-0.080361605
43	0x3ba3cef0	0.004999034
44	0xbda0aeba	-0.078458264
45	0xbb06a880	-0.0020547211
46	0xbd8144f7	-0.06311982
47	0x3d86d489	0.065835066
48	0xbc8ba1cc	-0.017044924
49	0xbd2fcdbb	-0.04292081
50	0xbd743000	-0.05961609
51	0x3d2bacb6	0.041912757
52	0xbd1aa1c8	-0.037751943
53	0x3d220aa6	0.039560936
54	0x3d4864fa	0.048924424
55	0xbd8238de	-0.06358503
56	0xbd33e796	-0.04392203
57	0xbccdfc30	-0.025144666
58	0xbd99f528	-0.07517463
59	0x3d7629fa	0.060098626
60	0x3d5694b6	0.052387916
61	0xbd2b9340	-0.041888475
62	0x3cb5cadc	0.022191457
63	0x3d1bc6a0	0.03803122
64	0x3c63fa80	0.013914704
65	0x3cf1b4ec	0.029505216
66	0xbb9e8950	-0.0048381463
67	0x3cd4438c	0.025911115
68	0x3d50fcda	0.051022388
69	0xbd6f34c6	-0.058399938
70	0xbce92440	-0.028459668
71	0xbd9badaf	-0.07601487
72	0xbd97330a	-0.07382782
73	0x3d13b852	0.036064453
74	0xbcc41206	-0.023934375
75	0xbb867930	-0.004103802
76	0xbda533ba	-0.08066507
77	0xbd7cb81b	-0.061699014
78	0xbd85cbdf	-0.06533026
79	0xbd27a44b	-0.040928166
80	0xbce35d3c	-0.027754419
81	0x3d238250	0.039919198
82	0x3d105fb2	0.035247512
83	0x3cef5ed4	0.029220022
84	0x3bb32e70	0.0054681823
85	0x3cfd6024	0.030929632
86	0x3cf5f434	0.030023672
87	0xbda697c8	-0.08134419
88	0xbd5db7eb	-0.054130476
89	0x3d026678	0.031836003
90	0xbc2c52c8	-0.010517783
91	0xbd99587a	-0.07487579
92	0xbc5de248	-0.013542719
93	0x3d85579b	0.0651085
94	0x3b5eace0	0.0033977553
95	0x3d09f63a	0.033682086
96	0x3aea3a00	0.0017870069
97	0xbc8bba7c	-0.017056696
98	0xbc8c90b4	-0.017158844
99	0x3c9005ac	0.01758083
100	0xbd863e17	-0.065548114
101	0x3c07c958	0.00828775
102	0xbd41047b	-0.047123414
103	0xbd2c53ab	-0.04207198
104	0xbc969f7c	-0.018386595
105	0xbd7f19ae	-0.06228035
106	0x3d289ece	0.041167073
107	0xbd0d4676	-0.034491025
108	0xbd2184ab	-0.039433163
109	0xbcd2f9dc	-0.025753908
110	0x3cf37d30	0.02972278
111	0x3d84666d	0.06464849
112	0x3d995f4d	0.0748888
113	0xbda8bd5a	-0.08239241
114	0xbcecb19c	-0.028893284
115	0x3d2985be	0.041387312
116	0x3c9890d0	0.01862374
117	0xbda57b23	-0.08080127
118	0xbd8f1b04	-0.06987575
119	0x3d58951a	0.05287657
120	0x3d31d16e	0.04341262
121	0x3d398a86	0.045298122
122	0x3cd44f50	0.025916725
123	0x3d9beef5	0.07613937
124	0x3c4aab38	0.012369923
125	0xbcf578e6	-0.029964875
126	0xbd1343eb	-0.035953443
127	0xbcc6bbac	-0.02425941
128	0x3d193438	0.037403315
129	0x3d556c1a	0.052105047
130	0xbda0fbec	-0.0786055
131	0x3da81c27	0.08208495
132	0x3d47920e	0.048723273
133	0x3da0b64d	0.07847271
134	0xbd28c52e	-0.04120367
135	0xbcf1aa86	-0.029500257
136	0xbd683808	-0.05669406
137	0x3d887a39	0.06663937
138	0xbaf08240	-0.0018349364
139	0xbd967dcb	-0.07348212
140	0x3d3069ea	0.043069758
141	0xbc97396c	-0.018459998
142	0x3c9abd64	0.018889137
143	0x3caf3644	0.02138818
144	0x3da25b95	0.07927624
145	0xbda2c1f6	-0.07947151
146	0xbd24535e	-0.040118568
147	0xbd1dfea6	-0.03857293
148	0xbd49e420	-0.049289823
149	0x3d80fe39	0.06298489
150	0x3d9746d3	0.073865555
151	0x3d879fe3	0.06622293
152	0xbc5a50a0	-0.013324887
153	0xba82a940	-0.0009968653
154	0xbd077750	-0.03307277
155	0x3d87e905	0.06636242
156	0x3d69c056	0.05706819
157	0xbda49c1b	-0.08037587
158	0xbc6d93c0	-0.014500558
159	0x3ba6f870	0.005095534
160	0xbc91fae4	-0.01781983
161	0xbd9d1d00	-0.07671547
162	0xbd33a623	-0.043859612
163	0x3c651a08	0.013983257
164	0xbd3b45db	-0.045720916
165	0xbd52b91e	-0.051446073
166	0x3d8237d1	0.063583024
167	0x3c9a3cf4	0.018827893
168	0xbcd71c70	-0.026258677
169	0x3ca1f5d0	0.019770533
170	0xbd3d2da0	-0.04618609
171	0x3d0957d2	0.033531018
172	0xbd8b356e	-0.067973
173	0xbd08ae26	-0.033369206
174	0xbc515660	-0.012776941
175	0x3d6618f6	0.05617615
176	0x3cfc8410	0.030824691
177	0x3d8c573f	0.06852578
178	0x3b82c180	0.003990352
179	0x3b5eec80	0.0034015477
180	0xbd0e14c6	-0.03468778
181	0x3da06741	0.07832194
182	0xbda834cc	-0.08213195
183	0xbd26ee78	-0.040754765
184	0x3d7ed596	0.06221541
185	0xbce24b80	-0.027623892
186	0xbd584790	-0.052802622
187	0x3d99d65d	0.0751159
188	0x3ca7ba34	0.02047453
189	0xbd5e3806	-0.054252647
190	0x3d9989a5	0.07496957
191	0xbd639533	-0.05556221
192	0xbccd9cf6	-0.025099259
193	0x3d9b7c69	0.07592089
194	0xbc92c6e4	-0.017917104
195	0x3d69917e	0.057023518
196	0x3da2c453	0.07947602
197	0xbc5a71f8	-0.013332836
198	0x3d150ed2	0.036391087
199	0xbc5c20e0	-0.013435572
200	0xbd7da406	-0.061924003
201	0x3d967bb5	0.07347814
202	0x3d74b03a	0.059738375
203	0x3d2f43da	0.042789318
204	0xbc84eacc	-0.016225241
205	0x3c89d70c	0.016826175
206	0xbda69392	-0.081336156
207	0x3bbd49f0	0.0057766363
208	0x3d9acdcb	0.07558783
209	0xbd7b78ab	-0.061394375
210	0xbda81687	-0.08207422
211	0xbcf499cc	-0.029858492
212	0x3da68637	0.08131068
213	0x3d206e68	0.03916779
214	0xbbc8e430	-0.0061307177
215	0xbb4830a0	-0.003054656
216	0x3c85a1d0	0.01631251
217	0x3bfa3e70	0.0076368377
218	0xbd39580e	-0.04524999
219	0xbd7abf3b	-0.061217528
220	0x3ceec4e4	0.02914662
221	0x3caee00c	0.021347068
222	0x3c343cf8	0.011000864
223	0x3cb81e80	0.022475481
224	0xbcef6a7c	-0.02922558
225	0xbd904c82	-0.07045843
226	0xbce7cccc	-0.028295897
227	0x3c8848c4	0.01663626
228	0xbd85a5a2	-0.065257326
229	0x3da24885	0.07923988
230	0xbd9de810	-0.07710278
231	0xbd3d5296	-0.04622134
232	0x3c2738a0	0.010206372
233	0x3da4ab31	0.08040465
234	0x3ccead3c	0.025229089
235	0x3d25c476	0.040470563
236	0x3ad2dac0	0.0016086921
237	0xbd3dcfe0	-0.046340823
238	0x3d9983cb	0.07495841
239	0xbc490438	-0.012269072
240	0xbc7a4e60	-0.015277475
241	0xbd849d97	-0.064753704
242	0x3d699572	0.057027288
243	0xbd05d5fe	-0.032674782
244	0x3be925c0	0.007115096
245	0x3d6ee212	0.058321066
246	0xbd5d2698	-0.053991884
247	0xbd6d135b	-0.057879787
248	0x3d4b186a	0.04958383
249	0x3d3740e6	0.044739626
250	0x3d39fcaa	0.045406975
251	0xbbe5e570	-0.0070158765
252	0x3d8a748d	0.067605115
253	0x3d989d47	0.07451873
254	0xbd90fcce	-0.07079469
255	0x3cfc42f4	0.030793644

dec1.0.bias f4 [8]
0	0xbc73b5b8	-0.014874868
1	0xbda56037	-0.08074992
2	0x3d1d94de	0.03847205
3	0x3bd18890	0.0063944533
4	0x3d603a92	0.054743357
5	0xbd98679b	-0.07441636
6	0xbbed74c0	-0.0072465837
7	0x3da36107	0.07977491

dec1.1.weight f4 [8]
0	0x3f800000	1.0
1	0x3f800000	1.0
2	0x3f800000	1.0
3	0x3f800000	1.0
4	0x3f800000	1.0
5	0x3f800000	1.0
6	0x3f800000	1.0
7	0x3f800000	1.0

dec1.1.bias f4 [8]
0	0x00000000	0.0
1	0x00000000	0.0
2	0x00000000	0.0
3	0x00000000	0.0
4	0x00000000	0.0
5	0x00000000	0.0
6	0x00000000	0.0
7	0x00000000	0.0

dec2.0.weight f4 [4, 8, 3, 3]
0	0x3da8ff71	0.082518466
1	0xbdd85a86	-0.10564141
2	0xbae600c0	-0.0017547831
3	0x3cd544e4	0.026033826
4	0x3d8da54b	0.06916293
5	0xbd833c0d	-0.06407938
6	0xbc35bac8	-0.011091895
7	0x3b2edc20	0.0026681498
8	0x3cc2a314	0.023759402
9	0xbd9812dc	-0.07425472
10	0xbd4eb23a	-0.05046294
11	0xbd2fb780	-0.04289961
12	0x3d830281	0.06396962
13	0x3c209778	0.009801738
14	0x3c93fcbc	0.01806485
15	0xbc676428	-0.014123
16	0xbd98f47e	-0.07468508
17	0x3cc18884	0.023624666
18	0xbd645d2c	-0.055752918
19	0x3ddecf73	0.108794115
20	0xbd7754eb	-0.06038372
21	0x3ab52480	0.0013820082
22	0x3dba141b	0.09085866
23	0xbda2f400	-0.079566956
24	0x3c16a758	0.009195171
25	0xbc696fe8	-0.014247872
26	0x3b6fb340	0.0036575347
27	0xbdd2adc4	-0.102870494
28	0x3def2ccf	0.116784684
29	0xbdc5f7ad	-0.09666381
30	0xbd7f4e69	-0.062330637
31	0x3d838dc5	0.06423525
32	0x3daeb05b	0.08529731
33	0xbda82fca	-0.0821224
34	0xbdc2f0f4	-0.095186144
35	0x3db5fe89	0.08886439
36	0x3d2a845e	0.04163014
37	0x3af5b740	0.0018746629
38	0x3c1e4738	0.009660535
39	0x3d34701a	0.04405222
40	0x3dcf5bb9	0.101249166
41	0x3d21e6a6	0.039526604
42	0x3b84ad80	0.004049003
43	0xbdb4a886	-0.08821206
44	0x3cc82e44	0.024436124
45	0x3d81e1e1	0.06341911
46	0x3be9b9c0	0.007132739
47	0x3db4d32f	0.088293426
48	0x3d82fef7	0.06396287
49	0xbdd2c496	-0.10291402
50	0xbd882d29	-0.066492386
51	0xbdd556b8	-0.10416931
52	0xbdc5b83c	-0.096542805
53	0x3d51989a	0.051170923
54	0xbdc55b04	-0.096365005
55	0x3d813c79	0.06310362
56	0x3a8279c0	0.0009954497
57	0x3dd571b7	0.1042208
58	0xbde7181c	-0.112838954
59	0x3dc29437	0.09500926
60	0xbdee11ba	-0.11624475
61	0xbd31c004	-0.04339601
62	0xbd976514	-0.07392326
63	0xbcbb0724	-0.022830553
64	0xbd3cc97c	-0.046090588
65	0x3da5fb9d	0.08104632
66	0x3dab9757	0.08378475
67	0x3c810184	0.015747793
68	0xbda78c1a	-0.08181019
69	0xbc40a898	-0.011758946
70	0x3b1a92a0	0.002358593
71	0x3d956d19	0.07296199
72	0x3cf5e7d4	0.03001777
73	0xbcd88a78	-0.026433215
74	0xbc882bf4	-0.016622521
75	0xbd5e46b2	-0.05426664
76	0x3d63106e	0.05543559
77	0x3d3e9252	0.04652626
78	0x3dc2175f	0.09477114
79	0x3cfb5c5c	0.030683689
80	0xbd508476	-0.050907575
81	0x3d1040e2	0.035218127
82	0xbda5f120	-0.081026316
83	0x3dc534ef	0.09629237
84	0xbd693d03	-0.05694295
85	0x3bf16f50	0.007368006
86	0x3db84d3d	0.08999107
87	0x3d8f648f	0.07001602
88	0xbd197434	-0.037464336
89	0xbdb2d7e4	-0.08732584
90	0xbccac354	-0.024751343
91	0xbde51e2d	-0.11187396
92	0x3db9e2ef	0.09076487
93	0x3d737fca	0.05944804
94	0xbcd90fa4	-0.026496716
95	0xbdb9009d	-0.0903332
96	0x3dad5ba7	0.08464747
97	0x3de60567	0.11231499
98	0xbdf08a63	-0.11745145
99	0xbd842ad1	-0.06453479
100	0x3db663d9	0.08905763
101	0x3d9ce59f	0.07660984
102	0x3d008bd6	0.031383358
103	0xbd6c53ac	-0.057696983
104	0x3da4e26d	0.08051
105	0xbc8fcbec	-0.017553292
106	0xbdd66b00	-0.104696274
107	0xbdabecdc	-0.08394787
108	0x3d99a513	0.075021885
109	0xbd8ff894	-0.070298344
110	0xbd1a8058	-0.037720054
111	0x3dad76ff	0.08469962
112	0xba85cb40	-0.0010207668
113	0xbdc92510	-0.09821522
114	0xbdeb1f75	-0.11480609
115	0xbceba668	-0.028765872
116	0xbd6558ab	-0.055992763
117	0x3dca465f	0.098767035
118	0x3bf5cdb0	0.0075013265
119	0x3d95b945	0.07310728
120	0xbca23ecc	-0.019805335
121	0x3da7e5b1	0.08198107
122	0xbcd44f54	-0.025916733
123	0xbbc3c4b0	-0.0059743747
124	0x3c6b5ea8	0.0143658295
125	0xbd867d66	-0.065668866
126	0x3dd8f825	0.10594205
127	0xbc6a03d8	-0.014283143
128	0x3de60189	0.112307616
129	0x3d85ca47	0.06532722
130	0x3d3fcc46	0.04682567
131	0xbde7fd57	-0.113276176
132	0x3d8ad989	0.06779773
133	0x3bac8590	0.0052649453
134	0xbc830460	-0.015993297
135	0x3d1d12ca	0.038347997
136	0xbde8335a	-0.113379195
137	0x3d0e9a5e	0.034815185
138	0x3d8c200f	0.06842052
139	0x3daf91f7	0.085727625
140	0xbdef8765	-0.11695746
141	0x3dcd3865	0.10020522
142	0x3db14409	0.08655555
143	0x3d716c1e	0.058941
144	0xbde689ec	-0.11256775
145	0xbca16a68	-0.019704059
146	0xbde01b03	-0.10942652
147	0x3dc664c3	0.096871875
148	0xbd0da4d2	-0.034581013
149	0x3d955919	0.07292385
150	0x3a724000	0.0009241104
151	0x3c95ec6c	0.018301211
152	0x3d3758e6	0.044762515
153	0x3da56b15	0.08077065
154	0xbd3e5316	-0.046465956
155	0xbc9fd058	-0.019508526
156	0x3d69dee2	0.057097323
157	0x3c0fa718	0.008767866
158	0xbcfb6d04	-0.030691631
159	0xbcc06c88	-0.023489252
160	0xbd6e6aff	-0.05820751
161	0xbbbf4050	-0.005836524
162	0xbd1c417a	-0.03814838
163	0xbc3bcd80	-0.011462569
164	0x3dd01715	0.101606525
165	0x3de35fdb	0.11102267
166	0xbddf6606	-0.10908131
167	0x3dc0d93b	0.094164334
168	0xbde4f964	-0.1118038
169	0x3c2c5e58	0.01052054
170	0xbdbc9ad2	-0.09209217
171	0x3dbb3377	0.091406755
172	0x3dd263cb	0.1027294
173	0xbdea1928	-0.114305794
174	0x3d8175fb	0.06321331
175	0x3c32a388	0.010903247
176	0x3d40b466	0.04704704
177	0x3c7c3c48	0.015395232
178	0xbc68a6d8	-0.014199935
179	0x3cc63cb4	0.024198867
180	0xbdd80b94	-0.10549083
181	0xbb0d94e0	-0.002160363
182	0x3daebec5	0.0853248
183	0x3d95745d	0.07297585
184	0xbb526a40	-0.0032106787
185	0x3d0164da	0.03159032
186	0xbd37c546	-0.04486587
187	0xbd2377e8	-0.039909273
188	0xbbb55a40	-0.0055344403
189	0xbdcff1fb	-0.10153576
190	0x3ca5c95c	0.020237617
191	0x3d71f3e6	0.05907049
192	0xbdc258e7	-0.09489613
193	0x3dd9d169	0.10635645
194	0xbdb15184	-0.08658126
195	0xbdb543c2	-0.088508144
196	0x3da778d3	0.08177342
197	0xbdd6ffe9	-0.1049803
198	0xbd91e7f7	-0.07124322
199	0x3d72307e	0.059128277
200	0x3d97d43b	0.074135266
201	0x3dafadf3	0.085781
202	0xbdb11c16	-0.08647935
203	0xbdac2f7e	-0.08407496
204	0xbc695340	-0.01424104
205	0xbd0f2b96	-0.034953676
206	0xbdcad378	-0.09903616
207	0xbd12dfbe	-0.03585791
208	0xbd97d2c2	-0.07413246
209	0xbd992e1c	-0.07479498
210	0xbc4f4248	-0.01265008
211	0xbd0a7678	-0.033804387
212	0x3d74a922	0.05973161
213	0xbcd7e2c4	-0.026353247
214	0xbd45d3d4	-0.04829772
215	0x3c98b33c	0.018640153
216	0x3d8e5a13	0.06950774
217	0xbd99107c	-0.07473847
218	0x3d5314be	0.051533453
219	0x3de3e869	0.11128313
220	0xbdc49cea	-0.096002415
221	0x3ddc38d1	0.10753024
222	0x3d57195e	0.052514426
223	0xbd582ea8	-0.05277887
224	0xbcf1e990	-0.029530317
225	0xbd815840	-0.063156605
226	0x3dd85911	0.10563863
227	0xbbe22f90	-0.0069026425
228	0xbd313f6a	-0.043273367
229	0xbda263a8	-0.07929164
230	0xbd898f15	-0.06716744
231	0xbda7f370	-0.08200729
232	0x3da8a75f	0.082350485
233	0x3dbf99ed	0.09355531
234	0xbd9edb8a	-0.077567175
235	0x3de70237	0.11279719
236	0x3de29981	0.11064435
237	0xbdc81bd9	-0.097709365
238	0xbc4be838	-0.012445502
239	0x3d0600ae	0.032715492
240	0x3c8f59fc	0.017498963
241	0xbcff07a4	-0.031131573
242	0xbdd8a6b2	-0.105786696
243	0x3cc10b5c	0.023564987
244	0xbc4cca98	-0.012499474
245	0x3caf6e34	0.021414854
246	0x3c9f49f4	0.019444443
247	0xbdf00747	-0.11720138
248	0x3d466e46	0.04844501
249	0x3daba897	0.08381765
250	0x3dd099e3	0.101856016
251	0x3d6ba7fa	0.05753324
252	0x3d9d8ae9	0.07692511
253	0xbd823352	-0.06357445
254	0xbd88bb57	-0.06676357
255	0xbdb02bcd	-0.08602104

dec2.0.bias f4 [4]
0	0xbdc3a814	-0.09553543
1	0x3d85afd9	0.06527681
2	0xbdcf8da9	-0.101344414
3	0x3c36a618	0.011147998

dec2.1.weight f4 [4]
0	0x3f800000	1.0
1	0x3f800000	1.0
2	0x3f800000	1.0
3	0x3f800000	1.0

dec2.1.bias f4 [4]
0	0x00000000	0.0
1	0x00000000	0.0
2	0x00000000	0.0
3	0x00000000	0.0

dec3.0.weight f4 [4, 4, 3, 3]
0	0xbe238fc2	-0.15972808
1	0x3de10e96	0.1098911
2	0x3e27b9a5	0.16379412
3	0xbe212944	-0.15738398
4	0x3e27d2ed	0.16389056
5	0x3e28c6f1	0.1648214
6	0x3e0a70b1	0.13519551
7	0x3d9e6340	0.07733774
8	0x3cb072a0	0.021539032
9	0x3da9e240	0.08295107
10	0xbd884b93	-0.0665504
11	0xbe01f578	-0.12691295
12	0xbe12a0d3	-0.14319162
13	0x3dae0812	0.08497633
14	0xbe087eeb	-0.13329665
15	0x3e25a725	0.16177042
16	0x3cdd9aa0	0.02705127
17	0xbdcb3260	-0.09921718
18	0xbde6b333	-0.11264648
19	0xbe04781c	-0.12936443
20	0xbdb12f36	-0.08651583
21	0xbbfdc7a0	-0.0077447444
22	0xbdfa852b	-0.12232431
23	0x3e178089	0.14795126
24	0x3dce3182	0.100680366
25	0x3c684bc0	0.014178216
26	0xbdb2fd43	-0.08739712
27	0xbe28acb3	-0.1647213
28	0x3e19d1df	0.15021466
29	0x3d3da61c	0.046300992
30	0x3d383dd0	0.044980824
31	0x3d8e5ad0	0.06950915
32	0xbda73aab	-0.08165487
33	0xbdd1754e	-0.10227452
34	0x3d7ecfac	0.06220977
35	0x3d9e8d9a	0.07741852
36	0xbdb225d8	-0.08698624
37	0xbe1f022e	-0.15528175
38	0xbca7a0a0	-0.020462334
39	0x3ceaca88	0.028661028
40	0x3d0ab22c	0.033861324
41	0xbc382d80	-0.011241317
42	0xbe0315b3	-0.12801246
43	0xbd983a26	-0.07432966
44	0xbd9377c6	-0.07200579
45	0xbdfbe5a8	-0.12299663
46	0xbe0c29be	-0.13687798
47	0x3c8eda20	0.017437994
48	0xbc106440	-0.008812964
49	0x3db0f7d2	0.08641018
50	0xbda18bcb	-0.078879915
51	0x3e0ab99f	0.13547371
52	0xbe1d70ca	-0.15375057
53	0xbd576586	-0.052587055
54	0x3d34283c	0.043983683
55	0x3e06a6f5	0.13149627
56	0x3d946438	0.07245678
57	0xbe1d58b2	-0.15365866
58	0xbc22f680	-0.0099464655
59	0xbe174dea	-0.14775816
60	0x3e1bffd9	0.15234317
61	0x3d748ba0	0.05970347
62	0xbe0289e3	-0.12747912
63	0xbb6b8140	-0.0035935193
64	0xbe1c6fc7	-0.15277015
65	0x3db0aada	0.08626337
66	0xbdd7de26	-0.10540418
67	0xbdbe2328	-0.09284049
68	0xbe0f9402	-0.14021304
69	0x3d345a5c	0.044031486
70	0x3d98ec90	0.07466996
71	0x3dd5a952	0.10432686
72	0x3d4c4f84	0.04988052
73	0xbd63012c	-0.05542104
74	0xbdb80aae	-0.08986412
75	0xbdd5f8e0	-0.1044786
76	0xbdbf26d3	-0.09333577
77	0x3bcdee80	0.006284535
78	0x3dd546ee	0.104139194
79	0xbe006c0a	-0.12541214
80	0x3d7885f4	0.060674623
81	0xbda69486	-0.08133797
82	0x3cfd5278	0.030923113
83	0x3e298b61	0.16557075
84	0xbdb8d528	-0.09025031
85	0xbe1ba3a2	-0.1519914
86	0xbd315b06	-0.043299697
87	0x3da64f72	0.08120622
88	0x3dfe693a	0.12422414
89	0xbddfadde	-0.109218344
90	0x3da9074e	0.082533464
91	0x3cb5a880	0.022175074
92	0x3d642260	0.055696845
93	0x3df132b2	0.117772475
94	0xbe13ffb8	-0.14453018
95	0xbd96d5be	-0.07364987
96	0x3dcc9506	0.099893615
97	0x3cbf47d8	0.023349687
98	0xbd5c1d76	-0.053739034
99	0x3dbbc1d2	0.09167828
100	0xbdf30cbe	-0.11867665
101	0xbda40bb6	-0.08010046
102	0xbd159420	-0.036518216
103	0x3e24f399	0.1610855
104	0xbddc3460	-0.10752177
105	0xbdc57a9e	-0.09642528
106	0x3c0911f0	0.008366093
107	0x3db85552	0.090006486
108	0xbe01c34a	-0.12672153
109	0x3c68e110	0.014213815
110	0x3dbc8ab2	0.092061415
111	0xbdac36e6	-0.084089085
112	0x3dffe3c6	0.12494616
113	0x3cc5cb78	0.024144873
114	0xbe214ff6	-0.15753159
115	0xbe1f5957	-0.15561424
116	0x3d70ef80	0.058822155
117	0xbdef4353	-0.11682763
118	0x3e187495	0.14888223
119	0x3cff7e40	0.03118813
120	0x3e002bc7	0.125167
121	0xbda4b243	-0.08041813
122	0x3db0299a	0.08601685
123	0x3d41b62c	0.047292873
124	0xbdaac238	-0.083378255
125	0x3e05aa5f	0.13053273
126	0xbe21eb00	-0.15812302
127	0xbccde2e8	-0.025132611
128	0x3c9a91a0	0.018868268
129	0x3b83e720	0.004025355
130	0x3e1ec49f	0.15504692
131	0x3e152685	0.14565475
132	0xbdf89d68	-0.12139398
133	0xbdab2a58	-0.08357686
134	0x3d063844	0.032768503
135	0xbd9dec00	-0.07711029
136	0xbd5c1d70	-0.05373901
137	0x3d3dc654	0.04633172
138	0xbe14fb52	-0.14548996
139	0x3cbfa6c8	0.023394957
140	0x3d8c01fa	0.068363145
141	0xbe19385f	-0.1496291
142	0xbda2757b	-0.07932564
143	0xbde77900	-0.11302376

dec3.0.bias f4 [4]
0	0x3dcb9322	0.09940173
1	0x3c2c5a90	0.010519639
2	0x3d8af992	0.06785883
3	0x3de8acce	0.11361085
